…
de","colab":{"base_uri":"https://localhost:8080/","height":798},"outputId":"f1b434a2-2405-4f96-f600-874905f9c8db"},"source":["model.compile(optimizer='adam',\n","              loss='categorical_crossentropy',\n","              metrics=['acc'])\n","model.summary()"],"execution_count":null,"outputs":[{"output_type":"stream","text":["Model: \"sequential_1\"\n","_________________________________________________________________\n","Layer (type)                 Output Shape              Param #   \n","=================================================================\n","conv2d_1 (Conv2D)            (None, 148, 148, 32)      896       \n","_________________________________________________________________\n","activation_1 (Activation)    (None, 148, 148, 32)      0         \n","_________________________________________________________________\n","max_pooling2d_1 (MaxPooling2 (None, 74, 74, 32)        0         \n","_________________________________________________________________\n","conv2d_2 (Conv2D)            (None, 72, 72, 32)        9248      \n","_________________________________________________________________\n","activation_2 (Activation)    (None, 72, 72, 32)        0         \n","_________________________________________________________________\n","max_pooling2d_2 (MaxPooling2 (None, 36, 36, 32)        0         \n","_________________________________________________________________\n","conv2d_3 (Conv2D)            (None, 36, 36, 64)        18496     \n","_________________________________________________________________\n","activation_3 (Activation)    (None, 36, 36, 64)        0         \n","_________________________________________________________________\n","conv2d_4 (Conv2D)            (None, 34, 34, 64)        36928     \n","_________________________________________________________________\n","activation_4 (Activation)    (None, 34, 34, 64)        0         \n","_________________________________________________________________\n","max_pooling2d_3 (MaxPooling2 (None, 17, 17, 64)        0         \n","_________________________________________________________________\n","dropout_1 (Dropout)          (None, 17, 17, 64)        0         \n","_________________________________________________________________\n","flatten_1 (Flatten)          (None, 18496)             0         \n","_________________________________________________________________\n","dense_1 (Dense)              (None, 512)               9470464   \n","_________________________________________________________________\n","activation_5 (Activation)    (None, 512)               0         \n","_________________________________________________________________\n","dropout_2 (Dropout)          (None, 512)               0         \n","_________________________________________________________________\n","dense_2 (Dense)              (None, 10)                5130      \n","_________________________________________________________________\n","activation_6 (Activation)    (None, 10)                0         \n","=================================================================\n","Total params: 9,541,162\n","Trainable params: 9,541,162\n","Non-trainable params: 0\n","_________________________________________________________________\n"],"name":"stdout"}]},{"cell_type":"code","metadata":{"id":"W3A0J_6xdNfU","colab_type":"code","colab":{}},"source":["filepath=str(os.getcwd()+\"/model.h5f\")\n",
…
MaxPooling2D(pool_size=(2, 2)))\n","model.add(layers.Flatten())\n","model.add(layers.Dense(512, activation='relu', kernel_constraint=maxnorm(3)))\n","model.add(layers.Dropout(0.5))\n","model.add(layers.Dense(num_classes, activation='softmax'))\n","model.summary()"],"execution_count":null,"outputs":[{"output_type":"stream","text":["Model: \"sequential_2\"\n","_________________________________________________________________\n","Layer (type)                 Output Shape              Param #   \n","=================================================================\n","conv2d_2 (Conv2D)            (None, 32, 32, 3)         9248      \n","_________________________________________________________________\n","dropout_2 (Dropout)          (None, 32, 32, 3)         0         \n","_________________________________________________________________\n","conv2d_3 (Conv2D)            (None, 32, 32, 3)         9248      \n","_________________________________________________________________\n","max_pooling2d_1 (MaxPooling2 (None, 32, 16, 1)         0         \n","_________________________________________________________________\n","flatten_1 (Flatten)          (None, 512)               0         \n","_________________________________________________________________\n","dense_7 (Dense)              (None, 512)               262656    \n","_________________________________________________________________\n","dropout_3 (Dropout)          (None, 512)               0         \n","_________________________________________________________________\n","dense_8 (Dense)              (None, 10)                5130      \n","=================================================================\n","Total params: 286,282\n","Trainable params: 286,282\n","Non-trainable params: 0\n","_________________________________________________________________\n"],"name":"stdout"}]},{"cell_type":"code","metadata":{"id":"GPPQ9yI5Gmzk","colab_type":"code","colab":{}},"source":["# Compile model\n","epochs = 50\n","lrate = 0.01\n"
…
